hw3_/checkpoint.pth (torch_old, 141516 bytes, 14 tensors)

layer1.0.weight f4 [16, 3, 5, 5]
00000000: 5498 1cbd 25a9 013e 766a 223e c4c1 e93d
00000010: e719 533c fffb 6f3d 3550 b5bc f49a 2e3e
00000020: 783f 8b3d 8862 243e dfd1 de3d 6c0f 973d
00000030: 40e7 293e df96 593d c5f6 383d 7122 a7bd
00000040: 0ce0 9bbc 0eb9 aebd 4cb4 d8bd 458e 26be
00000050: ef46 29be 1fc3 a63b fcaf 21be 802f 91bd
00000060: 8181 37be ba83 923d 7ab7 313c e14c 043e
00000070: d56c f43d ef7d 1f3e bbab 613d 226d d93d
00000080: baa9 813d 3584 d83d 5452 913c d417 80bd
00000090: 8573 8139 552d 463d 5c22 c63d bfd0 c6bd
000000a0: 31a7 2c3d 5ee1 93bc 3631 2cbe c0ef 63be
000000b0: 122c 67bd c790 0bbe 8d02 06be 8657 4abe
000000c0: c3b2 13be d1c6 e1bd f321 bbbd 4bc2 ddbd
000000d0: 3640 f0bd ee2e bbb9 ae4b 37bd 056a ccbc
000000e0: 5a47 ef3d 6ce1 4fbd 6937 cabd a1d5 8f3d
000000f0: 9fd0 223e 43d6 2c3e 0de9 093e 79ff c33d
00000100: a994 03bd 7cb4 103a ef60 acbd 24b7 f1bd
00000110: 4a4c 74bd 7c86 8c3d d587 843d ebd2 d5bd
00000120: 0f55 783d 28a6 c4bc 79e4 cf3d 3b79 483d
00000130: b011 21bc 043f bebd 5775 563e b079 aebd
00000140: 68ac ff3d 0449 8ebb 0ac4 d4bc 3d68 4b3e
00000150: cb91 e53d 51b5 793b a8cc d4bd bb86 53be
00000160: 99ef 843d 2957 21be f47f cabd 2354 b93d
00000170: 93a5 96bc 467f 163e 4ff6 afbd 1b85 f2bc
00000180: f1b8 75bc f96c babd d5f3 b9bc 045d 933d
00000190: ad49 3a3c 4a77 7dbd 76c5 68ba 0fda 053d
000001a0: 6f85 1cbe f5a2 4cbd 2959 013e 4795 acbd
000001b0: 321e 893e 8980 c5bd cf5e efbd fedf c6bc
000001c0: 7821 8abe 33bc 883c c6d8 82bd e673 d93d
000001d0: 288b 173e dfb7 52bd 97e3 073e 9eae 83bd
000001e0: 39b7 4e3c 1b39 093e f81a 51bd 5919 113e
000001f0: eb3e a6bd b106 6e3c 9945 c1bc 350c 42bd
00000200: ccfb 9c3d f6d0 65bd f5ac 8e3c f489 803c
00000210: 85a8 abbc 24c6 663e 4ff6 80bc 66b9 2dbd
00000220: 91b5 9f3d dece 7abe 4189 7fbc 1ab3 2dbd
00000230: dfe2 a03d a842 213d 6073 0cbd 2a40 1b3c
00000240: 11a3 8ebd fbb5 e23a 204b 6fbb c199 03be
00000250: 5ee4 253e 87c5 283d c7af 933b 0673 1ebe
00000260: aa1f 9abe 4900 f6bd 55d1 113e cfc0 003d
00000270: 4d06 af3c 7e61 4fbe 91cd 98be 37cf 89bd
00000280: c0d5 c93d fd8c 563d 6931 e2bd 51c5 7ebe
00000290: a5de 08be 7def 0b3e b841 fc3d 1aff 073d
000002a0: 9ab8 093b 8ff0 69be 122b b93d 8f0f 723e
000002b0: e4f7 343e a724 d6bc e9c0 31bd dd67 1d3e
000002c0: 44b6 04bd 45d9 41be 8ff1 cdbc d3f8 973d
000002d0: bb7b 09bd c018 5d3d e6f3 01be 633b 61be
000002e0: 9502 ab3b 8b21 f83c 9d2c b43c a0ce 9d3c
000002f0: 2234 bebd ac8c b8bd be41 fe3d c42e 243d
00000300: 6998 87bc 923b a2bd 8ff2 28be f4ca ae3d
00000310: 6b79 aabc 6b5b 4cbc ba55 d43c dad0 1d3d
00000320: a384 06bd df00 79bd 3dfd 2cbe c03a df3c
00000330: e2a1 d53d 1b27 50bc 3c80 ffbd 3926 f1bd
00000340: 3378 8cbd afbf e03d 122f e63d afc3 57bd
00000350: 730f 5ebd 4e63 2ebe 5706 86bd 3657 803d
00000360: 6eb8 46bd aa2a aa3b c2cf 213d 16b3 6bbd
00000370: c870 4a3e 21d6 e43d b76b 6b3d 29b7 b73d
00000380: 2f67 f73d 2d04 3b3d 87bb 48be 6672 d13d
00000390: b2e7 c4bc 087e 78bd 4db1 0abe b89a 88be
000003a0: 4d89 5c3d d95d adbd 28e3 4fbd 4dd2 94bd
000003b0: 8642 85be 088e 733d 8d3b 123d 5028 7ebd
000003c0: cc81 7bbd 5d4e 2ebd c0a0 6d3e 3435 2f3d
000003d0: 6c31 51bd 2968 873d 08ca 943d da6d 333e
000003e0: 6be7 403d d741 863d c41b fb3c 05f3 1dbe
000003f0: c379 3a3e d398 0c3e 9649 bf3d befe 113e
-0.03823121 0.1266218 0.15860924 0.11413911 0.012884594 0.05858993 -0.022132972 0.17051297
0.06799215 0.16053212 0.108798735 0.07375988 0.16592121 0.053122398 0.045157213 -0.08160866
-0.019027732 -0.0853139 -0.10581264 -0.16265209 -0.16530965 0.005089178 -0.15789789 -0.07089138
-0.17920496 0.07154031 0.010846967 0.12919952 0.119348206 0.15575384 0.055095416 0.106165186
0.06331201 0.105720915 0.017739452 -0.06254545 0.00024690866 0.048383076 0.09674522 -0.09707784
0.042151634 -0.0180518 -0.16815647 -0.22259426 -0.056438513 -0.13629447 -0.1308691 -0.1975995
-0.14423661 -0.11024249 -0.09137335 -0.10828074 -0.11730997 -0.00035702385 -0.04474991 -0.024952898
0.11683531 -0.05075209 -0.0987385 0.07023168 0.15899895 0.1687861 0.13467808 0.09570212
-0.032124195 0.00055200583 -0.08416926 -0.118025094 -0.059643067 0.06861588 0.064712204 -0.1044062
0.060627993 -0.02400501 0.101509996 0.04894374 -0.009830877 -0.09289363 0.20943199 -0.08519304
0.12484056 -0.0043422002 -0.025972385 0.19863982 0.112094484 0.0038102458 -0.103905976 -0.20656864
0.06491012 -0.15755905 -0.09887686 0.09049251 -0.018389499 0.14696988 -0.085919015 -0.029604485
-0.014997707 -0.09102816 -0.022699276 0.07195476 0.011370105 -0.06188134 -0.00088795216 0.03267866
-0.15285276 -0.049960095 0.12631668 -0.0842691 0.2678085 -0.09643657 -0.11688005 -0.02427673
-0.2697866 0.016691303 -0.063890025 0.10617809 0.14799178 -0.051444884 0.13270412 -0.0642979
0.012616926 0.1340069 -0.05105111 0.14169826 -0.081174694 0.014527963 -0.023592757 -0.047374923
0.07665214 -0.056107484 0.017416457 0.015690781 -0.02095438 0.22536522 -0.01574245 -0.042413138
0.07798303 -0.24492976 -0.015596689 -0.042407133 0.07855772 0.03937021 -0.034289718 0.009475747
-0.06964696 0.0017296666 -0.0036513284 -0.12851621 0.16200396 0.041204 0.0045070383 -0.15473565
-0.30102283 -0.12011773 0.1424001 0.031433877 0.02136531 -0.20252034 -0.29844335 -0.06728976
0.09855223 0.05238055 -0.110445805 -0.24879958 -0.13366182 0.13665576 0.12317222 0.03320227
0.0021014572 -0.22845672 0.09041418 0.23638748 0.17672688 -0.026140524 -0.043396864 0.15371652
-0.032400385 -0.18930538 -0.025139598 0.07420506 -0.033565264 0.05397868 -0.12690696 -0.2199531
0.0052188137 0.030289432 0.02199393 0.019263566 -0.09287287 -0.09011206 0.12414883 0.04008366
-0.016552167 -0.079215184 -0.16498779 0.08534804 -0.02080985 -0.012472968 0.025919784 0.038529254
-0.032841336 -0.060791846 -0.16893478 0.027249694 0.10431267 -0.012704636 -0.12475631 -0.117748685
-0.06858864 0.10974061 0.11239447 -0.052676853 -0.054213952 -0.17030069 -0.06544178 0.06266634
-0.04851573 0.0051930742 0.039504774 -0.057543837 0.19769585 0.11173654 0.05747577 0.08970482
0.120802276 0.04565828 -0.19602786 0.10226898 -0.024036262 -0.060667068 -0.13544197 -0.2668054
0.053841878 -0.08465166 -0.050753742 -0.07266674 -0.26027316 0.059461623 0.035701323 -0.062050164
-0.06140308 -0.0425552 0.23205853 0.042775348 -0.051072523 0.06611664 0.07265097 0.17522374
0.047095697 0.06555527 0.030652888 -0.15424736 0.18210511 0.13730173 0.09340207 0.14257333

layer1.0.bias f4 [16]
00000000: f2ec 5ebd 0c9a 27bd f3e7 1bbd 6f44 cdbd
00000010: ff73 ae3d bc57 a3bd 716f 8d3d 4ce5 7c3c
00000020: 8f47 223d 67f4 02bd 0170 d3bd 238c 093d
00000030: ded1 e9bd d067 1b3e 22b8 0d3e 06cb de3d
-0.054425187 -0.040918395 -0.038063 -0.10022818 0.08518218 -0.079757184 0.069060214 0.015435528
0.039619025 -0.03197136 -0.103240974 0.03358091 -0.11416982 0.1517632 0.13839772 0.108785674

layer1.1.weight f4 [16]
00000000: 6e45 6b3f 20d0 8d3f 1d90 763f 531e 5c3f
00000010: 829e 703f 06e7 423f c2df 473f 56ad 7f3f
00000020: 2355 863f d9f9 813f 1c75 9d3f ea5f 343f
00000030: 8d95 863f 3e77 8c3f ee1b 453f 8386 8b3f
0.91902816 1.107914 0.9631365 0.8598377 0.93991864 0.76133764 0.780758 0.99873865
1.0494732 1.0154372 1.2301364 0.70458853 1.0514389 1.097389 0.7699574 1.0900425

layer1.1.bias f4 [16]
00000000: b7b0 bdbd 821d ffbd 3dc6 e2be 6086 33bd
00000010: c34c 20be 8539 9e3d 64cd 73be 8b2b 98be
00000020: 4573 40be 4d44 33be 3b67 52be da6f 15be
00000030: b08e a8be 86e7 2ebe d5fd 69be c649 a4bd
-0.09262221 -0.124568 -0.4429187 -0.04382932 -0.15654282 0.07725815 -0.23808819 -0.2972072
-0.18793972 -0.17506523 -0.20547192 -0.14593449 -0.32921362 -0.17080507 -0.22850735 -0.08021884

layer1.1.running_mean f4 [16]
00000000: 7f52 21bd 664b 48bd 6693 65bd 0072 b8bd
00000010: 096e bb3d dad4 69bd 21e2 7f3d 4320 9b3c
00000020: 30ef 3a3d 311f 13bd 1779 dfbd ff88 6c3d
00000030: 2b8d e4bd 13f0 1c3e 774a 103e 28e3 de3d
-0.039385315 -0.04890003 -0.056048773 -0.09006119 0.09151847 -0.057087757 0.062471513 0.018936282
0.045638263 -0.03591842 -0.10911768 0.057747837 -0.11159738 0.15325956 0.14090906 0.1088317

layer1.1.running_var f4 [16]
00000000: 8d90 0740 1722 973e ac91 8b40 b235 8a3e
00000010: 4f1b 023f 4bcc d83f bec3 d940 1ed9 a33f
00000020: bd86 193f 7cce f83e ae03 093f 4674 c53f
00000030: 4f96 e43e 0fee 233e 724d 0740 46f6 e83f
2.1181977 0.29518196 4.361532 0.2699409 0.5082292 1.6937345 6.8051443 1.2800634
0.5997122 0.48595035 0.5352124 1.5426109 0.44645926 0.16008781 2.114102 1.8200157

layer2.0.weight f4 [32, 16, 5, 5]
00000000: 38d7 4d3e 1ff1 043e 4a13 313d 0b18 993d
00000010: 1736 6a3d 91a0 e23d bf9c ee3b 015e bd3a
00000020: 5466 0cbd d6f1 eb3d d69b 0dbd 6b3a d9bd
00000030: eb71 d2bd cc62 7abd 0750 673d 9197 f43d
00000040: a293 013e 1542 0a3c 6ed5 afbd 5a79 b5bd
00000050: 7ec6 323e 9384 603d cd8d cfbd de39 39be
00000060: c49a 3cbe 969e bf3d d3f4 ba3d 7215 a4bd
00000070: 520b 303d da52 f93c 477c 76bd cdc0 d33d
00000080: b913 1ebc 3514 8bbb 9e46 913d 8a35 01be
00000090: 5107 3e3d dfdf 043d f05d af3d 210f fc3d
000000a0: cf81 74be b414 603a b164 dd3d 02bb 853d
000000b0: 81cd 233d 9ce8 903d 90f8 5a3e dfd7 093e
000000c0: 5b3e a13d ec88 d73c 4ecb 253c 0f89 f63d
000000d0: 75cd 3b3d 13c9 e3bc 7ab4 f2bc 30a4 b7bc
000000e0: b0ea a13d d376 deb9 d03c 9dbd 3b42 cbbc
000000f0: 0781 28ba bc34 4cbd a7c1 cabd 6ab4 ffbd
00000100: 6963 9abd b161 8fbc d114 e73b aae5 ff3c
00000110: b7bb adbc 3eab 90bd bf0d ebbd 6e94 c7bd
00000120: 2684 183c 385e cabd 5e5a e9bd f6d8 5c3c
00000130: ad30 39bc 7115 8bbd e772 11be 01b6 02be
00000140: 6e32 133d d2ec 613b e825 7ebd bdf8 8c3d
00000150: 640c c53c 4e9f 54bd 61a3 ea3d 2803 b23c
00000160: 83bf 193e 5170 623d 1f34 e53d f394 af3d
00000170: b522 3f3c 0c13 413e bbf3 073d 53d7 0fbd
00000180: 4fb8 1fbe 2c37 bb3d ddbb 323e d7ff 92bc
00000190: a283 c73d b394 263e 65fd 413d 9128 2c3d
000001a0: 4587 313c 1a8a 843c 8938 1d3c 2c78 17bc
000001b0: 49e5 7abd a0ed e3bc 876c 363d 9b30 eb3c
000001c0: c8c4 ca3c 2e53 fa3c 9d02 043d 79e8 743c
000001d0: d458 0d3d 74db 34bd 8f99 58be 8c2a 4dbd
000001e0: 0d7d 143e 181e d03d b4a5 b83c 6248 12be
000001f0: 786b 883d 936a 46bb 4b5d 433d 425f b3bd
00000200: baf1 45bd 616f 8d3b 9975 ca3b 927d b33d
00000210: 8567 c8bc 4aaf bdbc 5c6a 1d3c 8c5a 88bd
00000220: 8584 cb38 4e4a 223d becc 2fbd 02de be3d
00000230: 0a5f d3bc 8a82 fb3d 7611 d63d 263e bdbc
00000240: 7e85 503c 3e84 8c3b b947 cd3d 6869 313d
00000250: ffef 3b3c 440a 243d 722e a7bd 500e f6bc
00000260: bd0c 403a 13c6 7a3d 4374 44bb 3ce4 f0bc
00000270: 8311 d4bd 6501 1bbe ac65 d3bd b387 23bd
00000280: 0d6c a8bc 83ba 5cbd c925 2bbe 599e 83bd
00000290: fb45 e6bd ae50 423b 5645 28bd 0b11 a0bd
000002a0: 3dc5 3dbd 3898 4cbc fea1 87bd 8142 12be
000002b0: 0d9e 3dbe 8df0 bbbd 7940 27bd 4112 a1bd
000002c0: ee91 8a3c 2e29 f0bd 0516 5fbe 4f44 97bd
000002d0: 4c30 e63c c388 aa3d 715a e33c 30a3 193a
000002e0: 129b 7c3c 3fa5 04bd be9e e93d 77aa 7bbd
000002f0: 0523 1cbc f1ca 2bbd e950 58bd ba58 5cbd
00000300: 7c80 2d3c 8b02 7e3d d542 92bb 3fd9 d1bd
00000310: a873 10bc 1e22 ef3d dfca 34bd bed2 20be
00000320: a732 23bd e075 8f3d 9832 4a3b 47d0 97bd
00000330: 16ae af3c 7581 c13d 86b0 f63d 89ab 2d3c
00000340: 37be 5abd 2f86 f0bc 04ba 22be 2fb2 b8bd
00000350: 4e8f d3bd c5a2 84bd 2577 553d 50f2 95bb
00000360: ba9e 813d f147 ab3d b71e 40bd 5bf6 acbc
00000370: 4258 0bbe 814d 493d 758e 883d 926e 13bd
00000380: 6cc1 52be 05e8 523d 8766 ffbb 4495 2bbe
00000390: ba48 2b3e e0c8 b13b c463 c33d e373 a7bd
000003a0: cc79 df3d 7c3b 613e c03b b4bd 6974 023e
000003b0: 4baf 21bd eee8 443c 4d6a 303d da17 5f3d
000003c0: da8c 833d 11d5 f3bd 5aeb 833d 867b 103d
000003d0: 382c b2bd a97a bf3d ae1e 0f3c 535d 2a3e
000003e0: 568c b03c 77f9 50bd ba2d 5c3c 3758 1a3d
000003f0: b278 aebd 4f26 2e3e 0538 35bb b59a 00bb
0.2010163 0.12982605 0.043231286 0.07475289 0.05718049 0.11065782 0.007281869 0.0014447571
-0.034277275 0.11520736 -0.034572445 -0.106068455 -0.102756344 -0.061129376 0.056472804 0.119429715
0.12653974 0.008438607 -0.0858563 -0.088610366 0.17458531 0.054813933 -0.10134468 -0.18088481
-0.18418413 0.0935642 0.09128728 -0.08011903 0.042979546 0.030435015 -0.060177114 0.10339508
-0.009648257 -0.004244352 0.07093547 -0.1261808 0.046393696 0.032440063 0.08562839 0.12307573
-0.23877643 0.0008548007 0.10810221 0.065298095 0.039990906 0.07075617 0.21383882 0.13461255
0.078732215 0.026310407 0.010119272 0.120378606 0.045850236 -0.02780584 -0.029627074 -0.022417158
0.07906091 -0.0004243167 -0.07677615 -0.024811855 -0.0006427918 -0.04985498 -0.099002175 -0.12485583
-0.07538492 -0.017502638 0.007052042 0.031237442 -0.021207673 -0.07063912 -0.11477231 -0.097451076
0.00930885 -0.09881252 -0.11394189 0.013479462 -0.011303109 -0.06791199 -0.14203988 -0.12764741
0.035936765 0.0034473431 -0.06204787 0.068833806 0.02405376 -0.051909737 0.11456943 0.02173002
0.15014462 0.055282895 0.11191582 0.08573332 0.01166599 0.18854922 0.033191424 -0.03511746
-0.15597652 0.091413826 0.17454477 -0.01794426 0.09741904 0.16267662 0.047360796 0.042030875
0.010835473 0.016179133 0.009595999 -0.00924496 -0.06125382 -0.02782327 0.044537093 0.0287097
0.024752036 0.030557241 0.032229055 0.014948004 0.03450854 -0.0441546 -0.21152328 -0.050089404
0.14500828 0.1016199 0.02253995 -0.14285424 0.06661123 -0.0030275926 0.047696393 -0.08758403
-0.04832623 0.004316256 0.0061785695 0.08764185 -0.024463424 -0.023154873 0.009607878 -0.066578954
9.704478e-05 0.039621644 -0.042919867 0.093196884 -0.025802154 0.12280758 0.10452549 -0.023100924
0.0127271395 0.0042882254 0.10023446 0.043313414 0.011470794 0.040048853 -0.081631556 -0.030036122
0.0007326117 0.061224055 -0.0029976524 -0.029405706 -0.103549026 -0.1513725 -0.10322127 -0.039924335
-0.020559335 -0.05388881 -0.16713633 -0.06426687 -0.112438165 0.002965014 -0.04108175 -0.07815751
-0.04633068 -0.012487464 -0.066226944 -0.14283182 -0.18517323 -0.09176741 -0.04083297 -0.0786481
0.016915288 -0.117266044 -0.21785744 -0.07386076 0.028099202 0.083268665 0.027753087 0.00058608036
0.015417831 -0.032384153 0.11407231 -0.061441865 -0.009529834 -0.041941587 -0.052811537 -0.053795554
0.010589715 0.062014144 -0.0044635334 -0.102465145 -0.008816637 0.11676429 -0.044138785 -0.15705392
-0.039843228 0.07004905 0.003085291 -0.074127726 0.021445315 0.0944852 0.12045388 0.010599979
-0.05340406 -0.029360859 -0.15891272 -0.09018361 -0.103300676 -0.06476358 0.05211558 -0.004576005
0.06329103 0.08363331 -0.046904292 -0.021113565 -0.13607886 0.04914618 0.066677965 -0.03599412
-0.20581597 0.051490802 -0.0077942046 -0.16756159 0.16726962 0.0054255575 0.09540513 -0.081764005
0.10911903 0.21995348 -0.08800459 0.1273972 -0.039473813 0.012018425 0.043070126 0.054466106
0.0642335 -0.119058736 0.06441374 0.03527405 -0.0869984 0.093495674 0.008735342 0.16637163
0.021551292 -0.05101916 0.013438636 0.037681784 -0.085191146 0.17006801 -0.0027651798 -0.0019623463

layer2.0.bias f4 [32]
00000000: df23 65bc afa8 09bd 3618 25bd 2d72 95bc
00000010: d5a5 a83c 326b 92bd 2040 1bb9 5205 da3c
00000020: 14d4 08bb 9113 c63b 59ac 953d 1697 903b
00000030: a506 913c 5ad4 f8ba 92ae 09bc ca89 f83c
00000040: bb43 9fbc 2155 05bc 2b0a e23c 9885 a53c
00000050: 8686 bcbc 3fd8 253d e972 553c 4571 ef3c
00000060: 3b95 bebd 7813 afbc fd36 923c e662 13bc
00000070: 650a 213c 58fa 96bd 86bd c23c 3a94 cebb
-0.013985603 -0.033608135 -0.040306292 -0.01824292 0.020586887 -0.07149352 -0.0001480584 0.026613865
-0.0020878362 0.006044813 0.07308263 0.004412542 0.017703364 -0.0018984184 -0.008403437 0.03033914
-0.019441476 -0.008137972 0.02759274 0.020205304 -0.023013365 0.04048943 0.013027885 0.029228816
-0.09305807 -0.021371588 0.017848486 -0.008995747 0.009829138 -0.07371968 0.023772012 -0.006304291

layer2.1.weight f4 [32]
00000000: 4a3c 543f 5caa 503f 9f58 563f 7ea0 5c3f
00000010: f627 5c3f 592a 563f be81 6e3f bc45 4c3f
00000020: 1f15 663f aec1 603f 1c97 5e3f 0979 693f
00000030: bf61 533f 990b 543f f48f 803f f30a 6b3f
00000040: db52 6e3f 39ae 703f c5db 673f e7e1 4c3f
00000050: d05a 553f 6416 553f 616e 473f 8b82 563f
00000060: c450 5d3f d949 613f 6f8f 613f 3474 603f
00000070: 49f3 5e3f 80aa 7b3f cad0 793f 44f6 583f
0.82904494 0.8150995 0.83728975 0.8618239 0.85998476 0.8365837 0.9316672 0.79793906
0.8987598 0.8779553 0.86949325 0.9120031 0.82571024 0.82830197 1.0043931 0.9181358
0.9309518 0.9401584 0.90569717 0.800322 0.83341694 0.8323729 0.779028 0.8379294
0.86451364 0.8800331 0.8810949 0.8767731 0.87089974 0.9830704 0.9758421 0.8475077

layer2.1.bias f4 [32]
00000000: ae5d e6be 68b8 c3be af4b e2be 0514 f3be
00000010: 3956 febe e951 c9be 6849 febe a3a9 d5be
00000020: 22c2 f8be f917 e3be 2438 b9be 752e febe
00000030: e4cd c5be 3c46 aebe 95c3 f0be 32f1 e3be
00000040: 7508 d8be 3e40 c3be c1e6 eabe de56 d5be
00000050: f703 b7be 26ff ecbe 441e f1be c718 abbe
00000060: 8770 ddbe 230d 8fbe d6ac aabe 7eac cabe
00000070: e419 d8be 267a 01bf 82fd 0ebf 6c5c f7be
-0.44993347 -0.38226628 -0.44198367 -0.4747621 -0.49675158 -0.39320305 -0.4966538 -0.41730985
-0.48585612 -0.44354227 -0.36175644 -0.4964482 -0.38633645 -0.3403796 -0.47024217 -0.44519955
-0.42193952 -0.3813495 -0.45879176 -0.41667837 -0.35745212 -0.46288413 -0.47093403 -0.3341734
-0.43249914 -0.2793971 -0.33334988 -0.39584726 -0.42207253 -0.5057701 -0.5585557 -0.483127

layer2.1.running_mean f4 [32]
00000000: b39d b6be c5bc 0abf c8b4 8cbf d7df 15c0
00000010: 7d13 abbf 85e0 a6bf de99 f7bf 07a0 7ebf
00000020: cbb0 babf bfc3 f43e 2e9f bbbf 3bc4 00c0
00000030: 5a4e 35bf 74d6 2c3f 7e0e 5ec0 c4f2 d7bf
00000040: bd2a 8ec0 e255 f8bf 6112 bdbf f226 47bf
00000050: 81fe a0bf d7a9 0dbf 4361 113f f65f 8cbf
00000060: 2622 b1bf 1f94 0ac0 3ebb 8abf 847d 04c0
00000070: 653b c7bf ff1c afbf 5427 1dc0 74cc cfbf
-0.3566719 -0.5419429 -1.099267 -2.341787 -1.3365322 -1.3037268 -1.9343832 -0.9946293
-1.4585203 0.47805592 -1.4657953 -2.011977 -0.7082268 0.6751473 -3.4696345 -1.6870961
-4.442717 -1.9401209 -1.4771234 -0.777938 -1.2577668 -0.5533728 0.56789035 -1.0966785
-1.3838546 -2.1652906 -1.0838392 -2.0701609 -1.5565001 -1.3680724 -2.4555254 -1.6234269

layer2.1.running_var f4 [32]
00000000: 7e60 2340 963c 3340 45cd 7d40 9682 6340
00000010: 5b02 2240 1b06 9d40 78a0 5840 b9d7 3940
00000020: 1a9a 6740 9e76 3140 9a13 8c40 c994 9f40
00000030: 6724 c240 fb65 5540 826c 1441 9521 5040
00000040: 0665 1141 02b5 bd40 e458 9740 fad9 8440
00000050: 1e0b 2640 7cc8 4d40 4e56 0c40 d34b 3b40
00000060: faef 5340 8376 bd40 fe83 4b40 a3bf a740
00000070: cb97 9b40 930f 7140 27c3 ac40 09d9 5840
2.5527644 2.8005729 3.9656537 3.5548453 2.5313938 4.9069953 3.3847942 2.9037917
3.6187806 2.7728648 4.377393 4.9869123 6.0669436 3.3343494 9.276491 3.2520497
9.087164 5.9283457 4.729601 4.1516085 2.5944285 3.2153616 2.1927676 2.926503
3.311522 5.920717 3.1799312 5.242143 4.8622794 3.7665756 5.3988223 3.3882468

fc.weight f4 [10, 2048]
00000000: d8ab cdbd 5e20 c8bc 65c5 8e3d bed0 073e
00000010: 1018 163c 0c62 73bc 64ea 8fba 1062 9fbd
00000020: b3ad eb3c 81f4 afbd 1d4a 1dbe 7e68 b13d
00000030: 0a98 aa3b 43dc d53c 396f 8d3d 6900 f3bb
00000040: f263 63bc ac96 98bd 616e ed3c b741 66bd
00000050: 5ba4 27be 4cb3 3e3b 5413 453e b56d babd
00000060: 9913 aabc 5b05 3fbc 5877 d5bc a892 77bd
00000070: 240f afbd 3a1b 14be 0bf7 823d a938 1b3d
00000080: a51c f4bc f156 1c3c 6bd3 d53c 4f9d d63c
00000090: 2574 3bbc 69d1 0cbd e074 5f3c af04 26be
000000a0: c387 91bc 6fde e83c dfa7 a33b bce8 843d
000000b0: 3ff6 783d 4cc8 e43b 3a62 a33c b555 47bd
000000c0: aec3 363d 63cd e33d 5cd5 f73a 11e4 603d
000000d0: b0d1 aa3d 9e6a 81bd d5a7 443c 8846 94bc
000000e0: d0eb e13d 8e86 a13c 4250 c83d 6b3c b73d
000000f0: f28c c93d 36e5 073d 8b47 fcbc c735 303d
00000100: dfd1 04be b753 2cbe 7825 663d 5b13 493d
00000110: 33cf eb3d f712 7e3d 314a 8a3d 597b 3e3d
00000120: ed94 d0bc 61d4 903d a940 8a3c 3fa4 b93b
00000130: 0e98 81bd 331d 1a3d 9bc2 b4bd ba47 003c
00000140: 6234 49bd 2acd c3bd d45b 13bd 4589 afbd
00000150: efb2 0abc 0e13 4ebd 783a 993d 08f9 9e3d
00000160: 5b1c 62bd 1551 31bd 1f96 4a3c 9602 353c
00000170: be73 853d 8c38 58bd 5ccb 27bd b263 babb
00000180: bc38 60bd ada1 23bd 1056 28bb ab96 823d
00000190: 9de3 9d3d 9e4c c43c 0207 00bd 87f2 c0bd
000001a0: b112 51bd 7ab3 1d3d 364b e1bb e9cc 9c3c
000001b0: d43e da3d d2df 993c 382c 46bd 9406 b7bc
000001c0: c36f adbc ea28 a83d 1e92 583d 720a 9f3d
000001d0: 2fa6 5fbc a106 303e 8253 c4bd 0d61 e5bd
000001e0: 61af fabb 3736 c73c 78ca d03d 31da e13d
000001f0: 6629 a23d 2e72 37bb c5f7 ef3c 27d0 8cbd
00000200: 6bc8 10be fb6d 3dbc 82fe c33d c0ec b5bc
00000210: 0e7f 2ebe 0b17 773c c5e5 eebc 5222 dabc
00000220: 0be0 fbbd ab0a 87bd 4c1d 45bc bba8 13be
00000230: 64d7 f7bc 1765 8abd 5323 aebd d47d 1cbb
00000240: 365b 8bbd 0624 d9bc 06f9 243d 862b 55bd
00000250: 91a9 dbbd e987 053e 3d5a 0f3d f0f3 ddbd
00000260: 4ee2 33bd 24cf 55bd 77a4 19bd 8300 51bd
00000270: 9ad8 b2bd fe1c 02bd ee36 903b 998a a43c
00000280: 0eae 39bd 934f d53b b2ff 89bd 29f8 11be
00000290: e772 11be e300 66bd bde5 763d b9a6 813c
000002a0: 484e 94bd 2505 d93c d83f 79bc ed5b 89bd
000002b0: 2fe6 07be f3cf 90bd 7226 7a3d 8702 d73c
000002c0: cdef 01bd 7332 593d 3965 e6bc ba3b 9abd
000002d0: 1129 08bd ca1c 07bc 7af7 e73d 7b54 f83d
000002e0: bf5a 8ebd 3458 2bbe a6f8 e6bd 69d1 adbd
000002f0: 2f79 25be 87d8 bcbd 132b dbbd 438c 6dbd
00000300: 7df5 cf3c ad16 b73b cf39 443d 2514 64bc
00000310: 8e73 e63c 3028 453d 4bea b73d e16e 05be
00000320: 9b2e c3bc 4669 2dbc 7482 0f3e daf8 633d
00000330: 63fa 703d 8b3f 90bc 3ce0 88bd 5b86 eb3c
00000340: c21a 073c 971e ebbb 2382 063e fc4f cd3c
00000350: 96db 9f3c a79b 523b 5989 04be c3e9 92bd
00000360: 59a0 e2bc 9163 843c efa3 153e 8930 84bc
00000370: 28fd e93b 6b9c 72bd dda5 c8bd 0557 febd
00000380: 2ccc e73b 550d 703d 8eb7 973d bd0f babd
00000390: d36a 6c3d 4878 823a 9cc5 20bd bed7 cbbd
000003a0: 4228 0a3d a1d1 113e c09e 6c3c eeeb 87bd
000003b0: aec9 cbbc 1438 15be 1ef9 e0bd 22ec 5bbd
000003c0: 6e2a 6abc d5cf cf3d 80f8 4c3d bac7 71bb
000003d0: 5a5a 863c b1d7 ca3a 43e4 83bc 2cbf 9dbd
000003e0: 9b39 fbbc 1ff3 073e 6288 463e 09c4 9f3d
000003f0: df93 b93c 180a 683d bcf4 ed3d de87 84bd
-0.10042542 -0.024429496 0.06971244 0.13263223 0.00916101 -0.014854919 -0.0010979888 -0.07782376
0.02876935 -0.08591557 -0.15360303 0.086625084 0.0052061127 0.026106006 0.0690598 -0.0074158204
-0.013878809 -0.074506134 0.028983297 -0.056215014 -0.1637129 0.0029098568 0.19245654 -0.09102956
-0.020761298 -0.011658992 -0.026057884 -0.060442597 -0.0854781 -0.14463511 0.06394776 0.037895832
-0.029798815 0.009542213 0.026101789 0.026198057 -0.011441265 -0.034379397 0.013638705 -0.16212724
-0.017764932 0.028426377 0.004994377 0.06489703 0.060781714 0.006981885 0.019944299 -0.04866572
0.04462021 0.11123159 0.001890819 0.054905 0.08340776 -0.06319164 0.012002905 -0.018100038
0.11031306 0.019717481 0.09780933 0.08947071 0.09841336 0.033177577 -0.030795833 0.043020036
-0.12970684 -0.1682881 0.056188077 0.049090724 0.115141295 0.062029805 0.06752432 0.046504352
-0.025461638 0.07071758 0.016876535 0.0056653316 -0.0632783 0.037625503 -0.088261805 0.007829601
-0.04912222 -0.09560616 -0.035976246 -0.08571104 -0.008465513 -0.05031114 0.07481855 0.07762343
-0.055202823 -0.043290216 0.012364893 0.01104798 0.06516217 -0.052788302 -0.040965423 -0.005688154
-0.054741606 -0.039949108 -0.0025686063 0.06376394 0.077094294 0.023962315 -0.031256683 -0.094212584
-0.051043216 0.03850124 -0.006875421 0.019140678 0.10656515 0.018783484 -0.048382014 -0.022342004
-0.021171456 0.08210929 0.052873723 0.07765664 -0.013650461 0.17190029 -0.0958624 -0.112001516
-0.0076503013 0.024317844 0.10194868 0.11027945 0.079180524 -0.002799164 0.02929295 -0.068756394
-0.14138953 -0.011561866 0.09570028 -0.022207618 -0.17040655 0.015081177 -0.029162297 -0.026627693
-0.12298592 -0.06593832 -0.012030911 -0.14419834 -0.030254073 -0.067575626 -0.08502831 -0.002387871
-0.068045065 -0.026506435 0.04027655 -0.05204346 -0.107257016 0.13040127 0.034998167 -0.10837543
-0.043916993 -0.052199498 -0.03751036 -0.05102588 -0.0873272 -0.03176593 0.0044010794 0.02008562
-0.045332007 0.00650973 -0.06738223 -0.14254822 -0.14203988 -0.05615319 0.06027769 0.01582657
-0.072414935 0.02649171 -0.015212975 -0.067069866 -0.13271402 -0.07070913 0.06107182 0.026246322
-0.031722832 0.053026628 -0.028124439 -0.07530923 -0.03324229 -0.00824661 0.11326499 0.12125488
-0.06950902 -0.16732866 -0.11277895 -0.084872074 -0.16159509 -0.09220987 -0.10701575 -0.057995092
0.025385613 0.00558742 0.047906693 -0.013920818 0.028131273 0.04813403 0.08980235 -0.13030578
-0.023825934 -0.010584181 0.14014608 0.055657245 0.058832537 -0.017608425 -0.06683394 0.02875059
0.008246126 -0.0071752775 0.1313558 0.025062554 0.019513886 0.0032136233 -0.12943019 -0.07173493
-0.02766435 0.016160758 0.14613317 -0.016136425 0.0071407743 -0.059231203 -0.09797261 -0.124189414
0.0070738997 0.058606464 0.07408057 -0.09085033 0.057719063 0.000995406 -0.039250955 -0.09953259
0.0337298 0.14240123 0.014442146 -0.06636797 -0.024876442 -0.14572173 -0.10985015 -0.05369199
-0.014292343 0.10147063 0.050041676 -0.0036892728 0.016400505 0.0015475658 -0.016100055 -0.07702479
-0.030667117 0.13276337 0.19387963 0.078010626 0.022653518 0.05665025 0.11618945 -0.06471227

fc.bias f4 [10]
00000000: a691 9dbd bdac 5fbd c3c7 0ebd 966a 613d
00000010: f9c9 eb3d 1222 09bd 26d0 1c3d 70fa 59bd
00000020: cbde 213d 3d11 273d
-0.07693796 -0.054608095 -0.034858476 0.05503329 0.115131326 -0.033479758 0.038284443 -0.05321735
0.039519113 0.040787924
